fashion_mnist/fashion_cnn.pth (torch, 977983 bytes, 22 tensors)

layer1.0.weight f4 [32, 1, 3, 3]
00000000: 3145 973c 4562 d3bd e685 08bd dc1e 69be
00000010: 0208 0dbf 3f28 71be 27fa 0d3e b6be c3bd
00000020: 9d00 673d 2d78 8a3d d3c8 193e 1e99 58be
00000030: 1b93 163e 185b 1cbe bc16 03bc fdd2 45bd
00000040: e2fb 43be 4702 773e 0838 3dbd 9734 753e
00000050: 8a5d 43be 6ad7 753e d9dd 81be 3381 e63d
00000060: 58ed 9d3e f25e 1bbe cb2a 8bbe e573 47be
00000070: 7345 483e a3b8 e13d c356 62be bcbf 1cbd
00000080: 36cb 813e 8e50 99be c827 b43e 0a8c 22be
00000090: d1c3 a3bd c0c1 91be 566d 893e 8f59 b93d
000000a0: 37d1 29be e019 3e3e b86e e6bc cc6f b0bd
000000b0: 9462 d13d ad99 80bc 8b2c 2c3e 24eb 1d3e
000000c0: 71ac 983d cf80 173e c883 903d 56de 233d
000000d0: d26c 9bbe 5350 e5be ef79 763e 3d0e 393e
000000e0: 4694 1fbe a48a 063c bc51 78be d0a9 8ebe
000000f0: 4160 1b3e c183 6f3e 8521 483d a5d8 dbbe
00000100: 0c7d e0bc c08b 293e 663b 003e e3f0 ba3c
00000110: 70b8 293d 5be8 233e dff7 e0bd cf55 3ebd
00000120: 2fe7 313e ee1d febd a115 153e c8d6 8abe
00000130: 5fdc 913c 91e4 a23e 0964 92be 3289 d53c
00000140: 7f10 413d d9e2 253d 6675 35bd 3fa2 c23d
00000150: 4bc9 d9be 05c0 cbbd 0177 963e 9d97 903d
00000160: 3b7c 5b3e 2c45 71be d490 abbc 4540 613e
00000170: b523 3a3e d27c 663e b039 47bc 2154 62bd
00000180: 1a76 24be 5c4d eabd 7679 8abe 17cc 563e
00000190: 1ad1 4bbe 82f8 9d3e 47cc 95be bbe6 edbd
000001a0: 9e93 16be 9fe7 89be ea92 25bf 3529 2ebe
000001b0: aced 87be 0294 7f3e a46e b33c bf97 e5bd
000001c0: 4812 ad3e 3977 68be a96d b63d 462e 4bbc
000001d0: 3342 9abd 66d4 0e3d 7f2e 473e dcfe 02be
000001e0: 6695 b7be 0dee f03e 5868 4ebd 3033 bbbd
000001f0: daa9 783c 48f3 403e a2fb f03d aea7 29be
00000200: 3d62 753d 4851 733e 7d19 55be e97b 3ebb
00000210: 7a2e a5be 0e06 a73e 3f64 03bd d967 f3bd
00000220: 49d8 30be 49c7 60be d96a 723e 40ca 80b8
00000230: 77ae 9e3e 52bb 9abd 168e 073e 1028 b0bd
00000240: 8f75 85be c6a8 ea3d c99f 633d 93bf 38bd
00000250: 1b59 8dbe 069c 2fbe 08b3 823e 3bc9 623e
00000260: 84da b33d 47ff 023e f4ac 80be 11b6 cd3c
00000270: 6fef 3e3e 682d 363e 619c b5bd cde9 22be
00000280: 9b95 6cbc a130 883e 31ce 07be 79cf c2be
00000290: de8f 65be 160d 82be c4e8 7cbd fdb6 673e
000002a0: 41f9 863d 4686 7b3e 80be 2f3d fd98 29be
000002b0: 35e1 9d3e 5403 0abe 8d84 143e 38db 80bd
000002c0: 3d74 65bd d3ce 8b3c a2df 6abe 57d1 513e
000002d0: e9fb dfbd 9852 163e 27db 443d 979a 19bd
000002e0: 345d 463e 76f0 28be bd4e 9a3e bd7e 47bd
000002f0: 0533 b5be b868 fe3d 7a09 143e 965d 6fbd
00000300: 997a 54bd ff13 9cbe c19c 603d f866 4ebe
00000310: 7679 04bf 032c 1fbe e6e3 5ebe 7824 b13c
00000320: 9d99 463e 0c47 7bbe 0a57 db3d 3b0d 0b3e
00000330: fa72 0abe 79a4 a1bc 26b1 233e 745c 8dbe
00000340: 4ca8 6d3d ee3f 0f3e c537 12be 9fdb a8bd
00000350: c97b 933e 37d9 d4be 8c82 1fbe 30e3 f6bb
00000360: 99c4 283b a367 523e beec be3d 10a7 0ebe
00000370: 9fb3 863e d023 66ba 54f3 8b3e 7746 35be
00000380: e2a3 97be 6dd2 8abd 3a16 513d a906 203c
00000390: 129d 5abe 28b0 1c3e 41bc 7b3d 7dff 8a3e
000003a0: d16a 65be 91ba 88bd 28c8 cf3d 1bf7 8d3c
000003b0: fc92 96be 47f4 9cbe 83c5 063d 25e7 b9be
000003c0: 4334 793e 815f 653e 9cca 9b3e c9ac d13d
000003d0: 9083 97be e0e7 aabe 9469 103e 0c6c 043d
000003e0: 8454 de3d 30f1 ae3d d146 503e 8092 b13d
000003f0: ec02 7e3e f80e 393e f03a 303e 9d65 883d
0.01846561 -0.10321478 -0.03333082 -0.22765678 -0.55090344 -0.23550509 0.13864957 -0.095578596
0.05639707 0.06761203 0.15018015 -0.2115216 0.14704554 -0.15269125 -0.008001026 -0.048296917
-0.19139054 0.24121962 -0.046196014 0.23945843 -0.19078651 0.24007955 -0.2536457 0.112551115
0.3084514 -0.15172938 -0.27181086 -0.19477804 0.19557743 0.11021545 -0.2210341 -0.03826879
0.2535035 -0.2994427 0.351866 -0.15873733 -0.079963334 -0.28468132 0.2684123 0.09050285
-0.16583715 0.18564558 -0.028128967 -0.086150736 0.102238804 -0.015698278 0.16813867 0.1542173
0.074547656 0.1479523 0.07056385 0.040006958 -0.3035646 -0.44787845 0.24069951 0.18071838
-0.15583906 0.008211765 -0.24249929 -0.27863932 0.15173437 0.23390104 0.04886009 -0.42938724
-0.027403377 0.16557217 0.12522659 0.022819942 0.04143566 0.16006605 -0.10984778 -0.046468552
0.17373346 -0.124080524 0.14559032 -0.2711699 0.017805276 0.31815007 -0.28591946 0.026066396
0.047134873 0.040499542 -0.044301413 0.09503602 -0.42536387 -0.09948734 0.29387668 0.07060168
0.21434109 -0.23561543 -0.020943083 0.21997173 0.18177684 0.22508553 -0.01215975 -0.055256013
-0.16060677 -0.114405364 -0.27045792 0.20976292 -0.19903985 0.3085366 -0.29257414 -0.11616274
-0.14704749 -0.26934525 -0.646773 -0.17007907 -0.26548517 0.24958804 0.021903343 -0.11210584
0.3380301 -0.2270173 0.08907635 -0.012401169 -0.07532158 0.034870528 0.1945133 -0.12792534
-0.3585617 0.47056618 -0.05039248 -0.091406226 0.0151772145 0.18842804 0.11766745 -0.16567871
0.05990814 0.23761475 -0.20810504 -0.0029065555 -0.3226202 0.32621807 -0.032078024 -0.11885042
-0.17270006 -0.21951021 0.23673572 -6.1411876e-05 0.3099248 -0.0755526 0.13237795 -0.08601391
-0.26066253 0.11457972 0.055572305 -0.045104574 -0.27607045 -0.17149362 0.25527215 0.22147076
0.08781913 0.12792693 -0.25131953 0.02511123 0.18646024 0.17790759 -0.088677175 -0.159095
-0.014439966 0.265996 -0.1326225 -0.38048914 -0.22418162 -0.2540061 -0.06174542 0.22628398
0.0659051 0.2456294 0.042906284 -0.16562267 0.30835882 -0.13477832 0.14503689 -0.06291813
-0.056019057 0.017066395 -0.22936872 0.20490013 -0.1093672 0.14679945 0.048060562 -0.037500944
0.19371492 -0.16497979 0.30138198 -0.04870485 -0.35390487 0.12422317 0.1445674 -0.05843886
-0.05187473 -0.30484006 0.054836992 -0.20156467 -0.51747835 -0.15544133 -0.21766624 0.021623835
0.19394536 -0.24538821 0.10709961 0.13579266 -0.13520423 -0.019731747 0.15985546 -0.276096
0.05802183 0.13989231 -0.14279087 -0.082450144 0.28805378 -0.41571972 -0.15577143 -0.007534407
0.0025751947 0.20547347 0.09322499 -0.13930917 0.26308915 -0.000877914 0.27334082 -0.17702661
-0.2961722 -0.06778417 0.051046588 0.009767213 -0.2134898 0.15301573 0.06145883 0.27148047
-0.22404028 -0.0667621 0.10145599 0.017329743 -0.29409015 -0.3065512 0.032903206 -0.36309162
0.24336343 0.22399713 0.30428016 0.10238034 -0.29592562 -0.33380032 0.14102775 0.032329604
0.10855964 0.085420966 0.20339514 0.08670521 0.24805802 0.18072116 0.17209983 0.06660006

layer1.0.bias f4 [32]
00000000: 0e83 b0be 83b2 43be 7b08 613d 060d 87be
00000010: f2cb a0be 4545 62be 6eda 5cbe 949e 91be
00000020: d738 0c3d a576 0c3e 07a9 66bc 8293 813d
00000030: bace 43bc dfaf 083e 78be 5a3e 4185 8a3e
00000040: cbcc 25be 160b 913e 2a6a bb3d c3f2 cdbc
00000050: 6b1c 5cbe 255e 6b3e 7f5f 523e 84b4 eebe
00000060: 343a b83e 0bf6 3abe 9c99 773e c04f c53e
00000070: f884 fdbd f144 3cbe ddbe 5e3e 74f6 643d
-0.34474987 -0.19111066 0.05493973 -0.26377124 -0.31405598 -0.22096737 -0.215677 -0.28441298
0.034233894 0.13717134 -0.014078385 0.06326963 -0.011951143 0.1334834 0.2136172 0.2705479
-0.16191404 0.2832877 0.091511086 -0.025140172 -0.21495216 0.22985132 0.20544241 -0.46622097
0.35981905 -0.1825792 0.24179691 0.38537407 -0.123788774 -0.18385674 0.21752496 0.0558991

layer1.1.weight f4 [32]
00000000: ccc6 913f 62f8 663f f4d7 6a3f 0bc2 7a3f
00000010: 02c0 723f 82b1 6a3f b324 563f 545d 503f
00000020: 6ec4 523f 81e9 5d3f e927 743f b4c4 903f
00000030: b880 8e3f 1248 4d3f e0e5 583f bb7c 813f
00000040: 0d57 673f 3be7 403f 0bef 853f 0075 663f
00000050: 89aa 7b3f 375a 8b3f ca07 863f ef6b 833f
00000060: fefb 3a3f d264 693f 25db 563f d8d2 483f
00000070: 8b42 893f e575 623f 43b7 823f ab87 923f
1.1388793 0.9022275 0.9173577 0.97952336 0.9482423 0.91677105 0.8364975 0.8139241
0.8233098 0.86684424 0.953734 1.1310029 1.1133032 0.80188096 0.8472576 1.011619
0.90367204 0.7535283 1.0463575 0.9002228 0.9830709 1.0886906 1.0471127 1.0267314
0.7304076 0.91169465 0.8392814 0.7844672 1.0723432 0.8846114 1.0212177 1.1447653

layer1.1.bias f4 [32]
00000000: 535e f8be 3f71 febb e586 523b 4ca5 85bc
00000010: a86a 063d 346c 8abe 6166 fbbe 4caa adbe
00000020: 6de4 103b 2e04 8dbe 0d08 46be 368a f8be
00000030: 3cff 35be 13bb f8be 9260 bbbe 2ba5 3abe
00000040: be44 8bbd 83d1 debe fccf 0abf 5d6e 32be
00000050: 64fd 8bbd a166 0ebf 2c4f efbc fcbc acbe
00000060: c66c fabe 413d fcbd db31 1cbe 0c50 babe
00000070: 26ab cebe f464 0dbe 404b 163d 3933 f9be
-0.48509464 -0.007764965 0.003212386 -0.016314171 0.03281656 -0.27035677 -0.49101546 -0.3391899
0.0022108809 -0.2754225 -0.19339009 -0.48542947 -0.17773145 -0.48580226 -0.36597115 -0.18227069
-0.06800221 -0.4351922 -0.5422361 -0.17424913 -0.0683544 -0.5562535 -0.029212557 -0.33737934
-0.48911113 -0.12316371 -0.15253393 -0.36389196 -0.4036495 -0.13808042 0.036692858 -0.48671892

layer1.1.running_mean f4 [32]
00000000: cdb7 aa3d 5d0e 3dbe 9994 743d f2ff 90be
00000010: 3209 98be 6395 47be b7e2 8dbe e81a 81be
00000020: 17e6 d03c b0ee 373e 5817 8fbc 6d01 163f
00000030: 5d84 febc 4ab7 3b3c cc6f 5b3e 1905 823e
00000040: 1da3 0dbe e39f 3c3e b2eb 8d3e 688a 00bd
00000050: ead7 59be 339b 1b3f 738c 4c3e 8411 7fbe
00000060: 3d34 863e 9c14 2fbe 711c 893e 427d a93e
00000070: 41e0 073d 5a31 49be da97 773e 4558 d73e
0.083358385 -0.1846251 0.059712026 -0.2832027 -0.29694515 -0.1949058 -0.27712032 -0.2521584
0.02550034 0.17962146 -0.017467186 0.58595926 -0.031068975 0.011457274 0.21429366 0.25394514
-0.13831754 0.18420367 0.27718884 -0.031381994 -0.21273771 0.6078369 0.19975452 -0.24909025
0.2621173 -0.17097706 0.26779512 0.33103377 0.03317285 -0.19647732 0.2417902 0.42059532

layer1.1.running_var f4 [32]
00000000: 89f5 fa3e 85e3 3d3c c703 803d bd52 b03d
00000010: 0aa7 423d 27e3 923d 15e2 9e3d 0a3e cf3c
00000020: 74b2 933d 7911 0a3d 3b97 433d ac0d 503f
00000030: eb11 fc3c 6a46 a93d 630c 0d3c b8b1 e73c
00000040: 87bd 143d 3df2 1a3d 301a 263e 6f8d e33b
00000050: 43d1 3d3d 03b5 de3e e313 b43d 1f1f 813e
00000060: 45e8 683d 0218 c23b 157e a63d a2da 8a3d
00000070: 2859 213e 3a44 563c 6f4c 923d e1bb f43e
0.49015453 0.011589889 0.062507205 0.08609531 0.047522582 0.07172232 0.077579655 0.025298137
0.072117716 0.03370807 0.047751646 0.8127086 0.030770263 0.082653835 0.00860891 0.028282985
0.03631356 0.037828673 0.16220927 0.0069443504 0.046342146 0.43497476 0.087928556 0.25219056
0.056862134 0.005923272 0.08129517 0.06779982 0.15756667 0.01307779 0.07143485 0.4779959

layer2.0.weight f4 [64, 32, 3, 3]
00000000: e815 5c3d 47f2 de3c 34ca cfbd 3425 a83d
00000010: eb6a 6d3b 442a 3abd 68ef 27bd b12d c9bb
00000020: 8e2d 353c 5328 f5bc 8f55 f6bd 06e2 903c
00000030: 186d 63be 2881 39be 1944 d1bd cb87 cdbd
00000040: ff7b 20be 0ad1 38be 5206 9dbc 57a2 2abd
00000050: c835 e5bd 93ef 673c 3a54 28bd fb9e e9bd
00000060: bbee 01bc 7c43 d53c b0e8 b7bd 8e08 d0bd
00000070: 4a74 ed3c 311b 2bbd 3f57 e1bb 3899 2e3d
00000080: 4da1 10bd 34b5 92bd 6b61 55bd dd13 83bd
00000090: e081 db3b 7dab 7f3d ea3e b93d b388 8ebd
000000a0: 9f4a 933c 88e5 56bc def4 c1bd c542 a9bd
000000b0: f0fd 92bd 3c2c 78bd 43da 26bd 47b2 193d
000000c0: 3643 6c3c f269 e33c 2de5 343d a412 28bc
000000d0: 9e25 a23d 1c52 d63c dbde 10bd 5b95 6b3a
000000e0: bdd4 b63d b1be a5bb b98c 823d 70e9 2c3d
000000f0: 8f37 dc3c 5451 a9bd d93a 513d 3a53 04bc
00000100: d001 c83d acbf fd3c 002f c43d e7c1 603d
00000110: da63 003d 4d29 5a3d 9c60 9e3c c24a 77bd
00000120: d207 97bc db72 ae3d 3569 62bd b05b 243c
00000130: d5f7 443d f8e0 083d 03ac 013d 6206 19bd
00000140: ba97 4cba 6c9e ef3c ab6a 0d3e 9854 f23a
00000150: 5fe5 0dbd 5e2f a23d ad10 303d dbd4 51bd
00000160: 29b9 293c 0171 08bd b375 17be 7c4f a9bd
00000170: 09ce 05bd 5f75 c3bc aa6e 96bd b45a 8b3d
00000180: 1dd1 35bc 86ea f1ba aec4 f03d f38a 3d3c
00000190: 8616 c0bd cef8 e7bc 07d1 673d b54e cbbc
000001a0: 3a33 c5bb 60a6 f63b 34c8 9a3d 1d37 1f3d
000001b0: dc76 31be d5b4 4ebd 9f43 343d 01bb 83be
000001c0: d959 9cbd c10e 46bd c367 a5be b8fa 50be
000001d0: 3845 d2bd 2ac9 d03c ebd4 3fbb 5408 6fba
000001e0: 50c7 87bc 40b2 5cbb 0725 3bbb 389d 8fbc
000001f0: 5881 043c 21f4 f5bc 75f0 ccbc e274 07be
00000200: b31d 5fbd 6dd5 85bd df44 c0bd 57f3 78bd
00000210: 6bd9 803b 9407 23be 6960 0fbd 4b1c 153b
00000220: 6ecc a53d b6a5 bf3d 6dcd 54bb ac5e 35bc
00000230: 108f ee3c f1cb 1dbd b012 e6bd f4dd 00bd
00000240: 1f38 3f3d 2e3a 48bd d3d6 943c 6bcd 39bc
00000250: 0dea 833c 2c83 12bd 9ca3 833c e715 b4bc
00000260: 490e ba3c b6fc b43c 6fa1 9ebc b611 003e
00000270: 18ee 25bc db55 65bc ee77 2c3d d153 76bc
00000280: 50ca 81bd 2db1 3fbd e985 573d d80d 263c
00000290: c341 463d cb24 fe3b e1ed 993c 1542 b0bd
000002a0: a89f acbc 0e98 5a38 d60d e1bc 0b3b 93bd
000002b0: 5c65 0bbd f51d 7e3d da41 36be f795 1fbe
000002c0: 6920 c2bd ee3e f1bd 3391 49be 6c77 62be
000002d0: 834a e8bd 191b c1bd 911e 733c c1d2 1abd
000002e0: 4eca 16bd 4d1d 56bc 6a54 10bc 8c3a cabd
000002f0: 2f5e d43d eba0 19bd 794e 253c 3d22 acbc
00000300: 1624 a73d 3383 77bd e136 2dbc f845 773d
00000310: 0558 253d f6f5 303d fadb 11bd 48a1 f13d
00000320: 9633 f03d 6b8f 0fbd f6de 393d 9bea 303d
00000330: 3e16 51bd face 35bc bb78 9fbd 7761 383d
00000340: 3ff6 803d fa3d 04bd b1dd a73d 25e7 bd3d
00000350: dc26 5abd c550 1a3d 86e6 9eba b7f5 98bc
00000360: 7f40 92bd c1bc bb3a 1915 953d 3b42 e83c
00000370: 104e 13bd f87d 673d f812 e53c 0e5e a4bc
00000380: 3049 1c3d 025a 113d a782 623c 0374 dabc
00000390: 5319 96bd 32ea ddbd c701 e8bd 9d19 06bd
000003a0: 1c1a 0bbe fbfa 10be df96 6a3c 0c5f 86bd
000003b0: c908 ff3c b9ef 60bc ed4e e03b 5272 a4bb
000003c0: 2dca 24bc a783 2f3d a89d 573d 021f 7fbc
000003d0: 4a60 7d3d 5983 873b 3dbf 813d feb0 123c
000003e0: 846e 16bd 727b 85bc 3f59 0a3d e94c 883d
000003f0: cef5 1dbd 0b9e c3bc 0545 6fbd ca7f 0f3d
0.05373183 0.027215136 -0.10145989 0.08210221 0.0036227058 -0.045450464 -0.0409998 -0.00613948
0.011058224 -0.029926455 -0.12028038 0.017685901 -0.22209585 -0.18115675 -0.10218067 -0.10035666
-0.15672301 -0.18048492 -0.019168053 -0.041658726 -0.111918986 0.01415624 -0.04109595 -0.11407276
-0.007930453 0.026033156 -0.089799285 -0.10157882 0.028986115 -0.04177398 -0.0068768556 0.04262659
-0.03531008 -0.07163468 -0.05209486 -0.06400273 0.006698832 0.062419403 0.09045203 -0.06959667
0.017979918 -0.013116248 -0.09470533 -0.082646884 -0.07177341 -0.06058906 -0.040735494 0.037523534
0.014420321 0.02776048 0.04416387 -0.0102583505 0.07917331 0.0261622 -0.03536878 0.0008986794
0.08927295 -0.0050581326 0.06374497 0.04221481 0.026881961 -0.08267465 0.051081512 -0.008076483
0.09765971 0.030975185 0.09579277 0.05487242 0.031345226 0.053262044 0.019333176 -0.06037403
-0.018436346 0.08518001 -0.055276114 0.010031626 0.048087914 0.033417672 0.031658184 -0.037359603
-0.00078045914 0.029250346 0.13810222 0.0018488346 -0.034642573 0.07919191 0.042984653 -0.051228385
0.010359087 -0.033310894 -0.14790992 -0.082671136 -0.032667194 -0.023859678 -0.07345326 0.068044096
-0.01109722 -0.0018456734 0.11756264 0.011568773 -0.09379296 -0.028316882 0.05659583 -0.024817804
-0.0060180696 0.0075271577 0.07557717 0.03887092 -0.17330498 -0.050465424 0.0440098 -0.2572861
-0.076343246 -0.048353914 -0.32305726 -0.20408142 -0.10267109 0.025486547 -0.0029271196 -0.00091183675
-0.016574532 -0.0033675581 -0.0028556006 -0.017531022 0.008087479 -0.030023636 -0.025017003 -0.13228181
-0.054471683 -0.06534848 -0.09388136 -0.060778942 0.0039321682 -0.1592086 -0.035004053 0.002275246
0.080956325 0.09357779 -0.0032471076 -0.011069935 0.029120952 -0.03852457 -0.11234033 -0.03146167
0.04668438 -0.04888361 0.018168842 -0.011340479 0.016102815 -0.035769626 0.016069226 -0.0219831
0.02271189 0.022093158 -0.019364087 0.12506756 -0.010127567 -0.01399752 0.04210656 -0.015034632
-0.06337416 -0.046799827 0.05261794 0.010135137 0.04840256 0.007755851 0.018790187 -0.08606354
-0.021072224 5.2116862e-05 -0.027472418 -0.07188996 -0.03403221 0.062040288 -0.17798558 -0.15584551
-0.09478838 -0.11779581 -0.19684295 -0.22115868 -0.11342337 -0.094289966 0.014838831 -0.037798647
-0.036814027 -0.013068509 -0.008809188 -0.09874448 0.103695266 -0.03750698 0.01008951 -0.02101242
0.0816118 -0.060427856 -0.010572166 0.06036946 0.040367145 0.043203317 -0.035610177 0.1179834
0.11728589 -0.035048883 0.045378648 0.043192487 -0.051046602 -0.01109671 -0.077866994 0.045014825
0.06296968 -0.032285668 0.08196581 0.09272603 -0.053259715 0.037674684 -0.0012123145 -0.018671853
-0.07141208 0.0014323221 0.07279415 0.028351894 -0.035963118 0.056516618 0.027963147 -0.02006438
0.038155735 0.03548623 0.013825095 -0.026666647 -0.07329049 -0.10835685 -0.11328464 -0.03273927
-0.13584179 -0.14158241 0.014318197 -0.065610975 0.031132119 -0.013729029 0.006845346 -0.005018511
-0.010057968 0.042850163 0.052640587 -0.015571358 0.061859407 0.004135531 0.06335304 0.008953331
-0.03672649 -0.016294215 0.033776518 0.066552944 -0.038564496 -0.023879072 -0.05841543 0.03503398

layer2.0.bias f4 [64]
00000000: b916 42bd 8681 74bd eb4b 38b9 ec8f 1f3c
00000010: f4e6 a9bd 2f85 80bc 0dd5 5ebd e9ba 5d3d
00000020: 1e24 1dbd f2e6 94bc 6435 5a3c ccd2 9138
00000030: a2dc 08bd df80 603b c897 033d 025b 733d
00000040: 6d49 a2bb 2cab 5fbd 246d 6bbc de11 2d3d
00000050: c147 4c3c 19ad c73a d262 153d 0e86 ac3d
00000060: db63 583d f8f9 8bbd 4f09 1f3d 59a4 10bd
00000070: a533 c73c 4f5c 1a3c ebd0 29bd 7af9 c2bc
00000080: 26bf 5fbc 7cac 45bd 2b7c a9bd d652 013d
00000090: 3de6 4f3d 741d 21bd e785 8cbc c8c0 eabc
000000a0: df46 3dbd 890c 4ebd 6621 de3c fb78 943d
000000b0: 4336 df3d b0db 0a3d 7fb7 2cbc d882 ebbc
000000c0: 637f 9e3d 3650 2dbd 3618 76bd 9628 2e3c
000000d0: a877 25bd 1322 5bbd ae75 663d c6f2 1d3d
000000e0: f3df 39bd 25f1 1ab9 6e45 a73d ff63 8abc
000000f0: 5e19 8b3c dd66 7b3d d96e 033d 0357 5f3d
-0.04738495 -0.059693836 -0.00017575889 0.0097389035 -0.08296004 -0.015688507 -0.0544024 0.05413333
-0.038364522 -0.01817653 0.013318393 6.953403e-05 -0.033413537 0.00342565 0.03212717 0.059412964
-0.0049526007 -0.0546066 -0.014369283 0.042253368 0.012468279 0.0015234082 0.036471196 0.084240064
0.052829605 -0.06834787 0.038827237 -0.035312984 0.024316618 0.009421422 -0.041459005 -0.0238006
-0.013656413 -0.048260197 -0.08275636 0.03157314 0.05075668 -0.03933473 -0.017153693 -0.028656378
-0.046210166 -0.050304923 0.027115535 0.07249638 0.108990215 0.033900917 -0.010541796 -0.028748915
0.07739141 -0.042312823 -0.060081683 0.010629794 -0.040397316 -0.053499293 0.05626457 0.038561605
-0.04537959 -0.00014776418 0.081675395 -0.016893385 0.01697987 0.061377395 0.032088134 0.05452634

layer2.1.weight f4 [64]
00000000: c138 983f acb4 5f3f a24e 343f 6e46 793f
00000010: d31c 663f a087 673f 2c0c 5a3f eb7d 6a3f
00000020: b008 5c3f 4c2b 553f a5ae 853f 7006 693f
00000030: 387f 8a3f 1a21 6d3f fde7 6a3f 0f6f 833f
00000040: 8eaf 5e3f cd78 783f 8ec1 373f 7bba 653f
00000050: 3203 513f f559 733f 32c6 763f e479 8b3f
00000060: 6206 2e3f 46c9 683f aedb 493f 0613 5f3f
00000070: 2a6c 2f3f 4170 953f 47d0 973f 1532 4a3f
00000080: cc64 6d3f c94e 463f 4005 793f caee 9a3f
00000090: 5117 723f ce75 5f3f a4d0 703f 6552 613f
000000a0: 6a09 643f c974 5d3f 2307 553f 4aea 613f
000000b0: da6a 7a3f 9a38 453f a105 613f ee2a 6a3f
000000c0: b330 5b3f 7a43 843f 11e8 4c3f 5929 733f
000000d0: 724b 693f b9a3 893f 8cc8 853f 828e 5c3f
000000e0: bb62 713f 3cc6 5e3f 37ca 663f 7218 703f
000000f0: 9c70 583f cfc6 7c3f acc3 573f 9841 683f
1.189232 0.8738506 0.70432484 0.9737309 0.8988773 0.9044132 0.8517482 0.91598386
0.85950756 0.8326919 1.0443922 0.9102545 1.0820074 0.92628634 0.91760236 1.0268267
0.86986625 0.9705933 0.71779716 0.8973767 0.816455 0.9505914 0.9639617 1.0896573
0.6797849 0.9093212 0.7885083 0.871384 0.6852442 1.1674882 1.1860436 0.7898267
0.9273193 0.77463967 0.97273636 1.2104123 0.9456683 0.8728913 0.9406836 0.8801635
0.89076865 0.86506325 0.83214015 0.8824812 0.9781929 0.7703949 0.87899214 0.91471756
0.85621184 1.0333092 0.80041605 0.94984967 0.91130745 1.0753089 1.0451827 0.8615495
0.94291276 0.8702123 0.90152305 0.937873 0.8454683 0.9874086 0.84282947 0.9072509

layer2.1.bias f4 [64]
00000000: 61fa 16bf 88f5 96be 0c27 e5be 18bd acbe
00000010: be01 0ebf 052e e6be 77fd d2be 8510 f4be
00000020: 773d e6be 3664 c7be 66c3 c9be f47c c9be
00000030: a73e 05bf 71ed cdbe 68d4 86be aa09 16bf
00000040: 36ce b6be c4e7 9fbe 1f92 0fbf 8c63 b8be
00000050: 6863 e6be 6a39 08bf 8abb 0dbf 0fa0 d0be
00000060: 6529 aebe 0bfd d5be da77 b5be c1cd b2be
00000070: 035c fcbe 82b1 17bf 3574 2bbf e191 b2be
00000080: 4932 14bf fad7 b5be a94d f2be a71c 15bf
00000090: 2efa 09bf 55ee e5be b111 09bf d6d7 10bf
000000a0: ddf7 11bf 3ed7 d4be e6b3 e7be ff99 d2be
000000b0: 94c2 b8be b084 babe 292d 0ebf a4fa 08bf
000000c0: c6b5 c8be 5965 f6be 0232 08bf bccf f2be
000000d0: 0f03 d7be f1b1 17bf b12e dabe a9a3 dfbe
000000e0: 915c 0ebf ff46 f6be 0d01 c1be 7ae2 d4be
000000f0: d576 d2be 394f cabe 35b3 a3be 64fe dabe
-0.589758 -0.294842 -0.44756353 -0.33738017 -0.5547141 -0.44956985 -0.41209003 -0.47668853
-0.4496877 -0.38943642 -0.3940689 -0.39353144 -0.52048725 -0.40220216 -0.26333928 -0.58608496
-0.357042 -0.3123151 -0.5608234 -0.36013448 -0.44997716 -0.53212607 -0.55364287 -0.40747115
-0.34015957 -0.4179462 -0.35443002 -0.34922603 -0.4928895 -0.5925523 -0.6697419 -0.34876922
-0.5788923 -0.3551634 -0.47324875 -0.58246845 -0.5389737 -0.44908395 -0.5354262 -0.5657934
-0.57018834 -0.41570467 -0.4525444 -0.41133115 -0.3608595 -0.36429358 -0.5553766 -0.5350745
-0.39201182 -0.48124197 -0.53201306 -0.47424114 -0.4199452 -0.5925589 -0.42613748 -0.4367955
-0.55609995 -0.4810104 -0.37696114 -0.41579038 -0.41106287 -0.39513567 -0.31972662 -0.4277221

layer2.1.running_mean f4 [64]
00000000: eafb 36c0 e6bd 15bf 4c6d 943f 3a26 dcbf
00000010: 850b 0ec0 5472 85bf 4140 cfbf 74fb 81bf
00000020: 90e5 e3bf ea2b c2bf 8bd8 0fc0 6658 d3bf
00000030: 3738 f8bf 3750 54c0 c917 86bf df03 29c0
00000040: 170a bebf 44da fbbf 22a0 783d 508e 0bbf
00000050: dedf 2ebf 8fb3 0fc0 1264 b8bf 323d e4bf
00000060: c42f 47be 6185 d9bf fe84 81bf c117 0cc0
00000070: b42b 1e40 908c 18c0 f220 5ac0 8738 abbf
00000080: 73a6 92bd 70f1 99bf d81c e7bf 64e0 44c0
00000090: be09 f4bf a020 2bc0 0b4d 13c0 17dc c1be
000000a0: 7e15 21c0 6dcc e5bf 80a8 9abf 6eaf dfbf
000000b0: b278 01c0 8476 9ebf 4689 cfbf 64f5 d2bf
000000c0: 79b7 98bf d9cd 08c0 e35f 20bf 2d95 23bf
000000d0: 8d7a 76bf 2b24 3bc0 ccd2 f2bf a203 cdbd
000000e0: 25a2 553f 5aa2 cabf 119f 593e 91c9 1fc0
000000f0: 929c 9fbf b401 aabd 47d7 b3bf ffc7 9dbf
-2.8591256 -0.5849289 1.1595855 -1.7199166 -2.219453 -1.0425515 -1.6191484 -1.0154862
-1.7804432 -1.5169652 -2.2475917 -1.6511352 -1.9392155 -3.317396 -1.0476009 -2.6408613
-1.4846829 -1.9675984 0.06069959 -0.54514027 -0.68310344 -2.2453344 -1.4405539 -1.7831175
-0.19451815 -1.6993829 -1.0118711 -2.1889498 2.4714174 -2.3835793 -3.4082608 -1.3376626
-0.07160654 -1.2026806 -1.8055677 -3.0761957 -1.9065473 -2.6738663 -2.3015773 -0.37863228
-2.5169368 -1.7953011 -1.2082672 -1.7475412 -2.0229917 -1.2379918 -1.6213768 -1.6481137
-1.1930991 -2.137564 -0.6264631 -0.638995 -0.9628075 -2.9240825 -1.897058 -0.100104585
0.8345054 -1.5830796 0.21252085 -2.4966776 -1.2469656 -0.08301106 -1.4050072 -1.2326659

layer2.1.running_var f4 [64]
00000000: bee7 1f41 b790 5640 f052 1240 394b d940
00000010: bbf1 8340 e3dd 9240 a262 7940 aec0 7f40
00000020: df9f 6340 a685 4140 cd48 d840 915e 5040
00000030: b507 ba40 8fb3 fe40 3f59 7340 fdb1 a140
00000040: bbe3 7840 db44 8840 0850 2b40 9301 5340
00000050: bf2e 5040 555a 9e40 d61e 7340 d964 e940
00000060: 81e2 6140 1418 9a40 a309 4c40 b1c8 8d40
00000070: b401 a540 e5e8 d440 b997 5c41 2208 bb40
00000080: 6355 4140 4cc6 7340 104c 8940 197f 4a41
00000090: f56a 9440 f2c5 8540 1eed 5940 b8b1 1940
000000a0: 0ba6 5f40 0f81 7440 e451 1440 683e 5140
000000b0: 0ff6 8940 7e41 8640 ef04 2f40 df59 9140
000000c0: 728b 4240 c2dc a440 9e0c 1640 3773 6040
000000d0: 1166 4e40 7b13 e940 b2c9 cc40 fa7d 9a40
000000e0: 895b 7a40 7317 6240 53cf 7940 5500 8c40
000000f0: 248d 4f40 4a3b 8e40 2a79 5c40 c5cd 7740
9.994078 3.3525827 2.286312 6.7904325 4.123258 4.589586 3.896645 3.9961352
3.5566328 3.0237823 6.758887 3.2557719 5.813441 7.959419 3.8023221 5.052977
3.8888996 4.258405 2.6767597 3.296971 3.2528532 4.948527 3.798757 7.2935605
3.5294497 4.815439 3.1880882 4.4307485 5.156458 6.6534295 13.787042 5.844743
3.0208366 3.808978 4.290535 12.65603 4.6380563 4.1804132 3.4050975 2.401472
3.4945095 3.820377 2.3174982 3.269434 4.3112864 4.1954947 2.7346761 4.5422206
3.039761 5.151948 2.34452 3.5070322 3.2249796 7.283628 6.399621 4.827878
3.9118369 3.5326812 3.903279 4.3750405 3.2429895 4.4447374 3.4448953 3.8719342

layer3.0.weight f4 [128, 64, 3, 3]
00000000: 3fb6 c93d d4b4 363c 4fe7 1dbc 5100 47bd
00000010: c18b e2bc 93ee bd3c c243 ce3d cdaa 79bd
00000020: 0f1c 463d 1abf 613c f508 403d f495 1ebd
00000030: a0af 6fbb 5c48 1dbd 7583 563d 05f5 15bd
00000040: 420f 04bc 27f2 87bc 4530 7d3b 8d4d 2a3c
00000050: 927a 9fbd 905c 213d 0da5 f53c 270b e4bb
00000060: a25b e8bc 9b7f f0ba 804b 8d3d a344 16be
00000070: acb6 7d3d b6a5 4b3c db25 65bd 9474 533d
00000080: 7ee1 0cbd 2870 e1bd ecdb 763c 6ab6 92bc
00000090: c204 24bd a2aa 8cbc 6251 05bd 1a2e b9bd
000000a0: 7dac 1a3d 7f89 fd3c a309 b8bb 7839 0f3d
000000b0: c80b ac3d b294 a03d a5e5 613d fff3 acbd
000000c0: dd44 af3d ae78 8b3d 65c0 e9bc 2f06 ad3c
000000d0: 1a3a 783d 4896 9b3d 3441 5d3d ca8d bc3c
000000e0: a901 14bd f664 d93c 4c6b dabc 4d2f b7bc
000000f0: c876 b3bd 19fe 1fbd d0e5 45bd 0c1c 0abb
00000100: 2528 1dbc 1d95 85bd 4a70 ab3c 32b9 46bc
00000110: 3010 db3d 4e42 1fbe 31c0 1bbd d3b0 263d
00000120: f024 a3bc 0d08 b5bd 29b3 5cbd 6fa9 803d
00000130: b63e 8dbc a764 d33c 7a25 2a3d 4dd3 9bbd
00000140: f592 0bbe a4f7 2b3d 3993 01bd 4af8 53bd
00000150: 5f7a 8dbd 74cc 4cbd 1b8b 93bd 55c7 f93b
00000160: a22f 833c 646f 91bd 54f6 5ab9 55a1 ca3c
00000170: d31e d43d 88b6 7fbd 567f b03d ea5b b83d
00000180: 6482 46bc b827 b7bd 8a59 d33c 5ec8 c0bd
00000190: 7aee 353c 8e90 0b3d 48c0 80bd a381 0ebd
000001a0: 237f e93d 162d 163d c186 55bd c385 bebc
000001b0: c01a 5a3c 1237 11bd a126 7f3d dd10 b2bc
000001c0: fe17 3bbd 25c4 f03d 3092 b5bc 3ed5 e8bd
000001d0: 3a77 453d 3485 5d3d 981e 503d 3f78 b33d
000001e0: 45e7 c1bc 7e73 f7bd 2ea5 143e bf84 87bb
000001f0: 1abe 84bd a37c 6d3d 076f 66bd 7aab e3bb
00000200: 2448 d63d eecb 05bc 4561 4d3d 6883 adbc
00000210: d9df 03bc 6a4c c4bd 6c04 dabd d760 303d
00000220: 84c3 debc ecf9 18bc 9d32 39bd 281c 023d
00000230: 919f 163d 1034 ce3a f4fa 583c 122b ad3b
00000240: 3461 843d b27b 73bd e5bf acbd 137a f03d
00000250: 26fc 0a3c 7bdf d6bc 6b35 313d 30c3 db3b
00000260: edb7 a3bc b7d9 33bd 406d 35bb 6dca 1e3e
00000270: 5067 a3bd 4e07 78bb 3dde 26bc b31d bfbc
00000280: 9ef2 acbd a0b2 1bbe 6a04 66bd b50a a8bc
00000290: 89b0 e0bd b824 953b e35b 193d 0ed4 d1ba
000002a0: 19a2 823c 249a bf3a 4303 06be dea6 823d
000002b0: af0b 983d c10f 303d c3b8 c8bb 3bd2 9ebd
000002c0: 859b d9bc 9bdf 05bd 0aeb 1ebe 54b7 02bd
000002d0: 45e5 b73d cc33 b63c 2f1a 24be c5b5 373d
000002e0: 3678 76bd 9111 043e 1125 c5bd 8d58 94bd
000002f0: 1063 85ba 3a45 433d d9dd 613d b369 f03c
00000300: 4dfb 57bd 08a3 923d 6d45 17bd 6498 9d3c
00000310: 0637 5d3d 9fe6 f5bd 2927 4d3c 3748 873d
00000320: b2c8 1b3c 8d99 943c f8cb 53bd 2bf0 75bc
00000330: 7bcf eb3c 2f54 84bc 03fd d1bc 5a3b fe3d
00000340: b918 0fbe f1d5 363c b913 ae3c d310 1cbd
00000350: 786e b93d 29d2 b9bd 14f8 17bc d2de 913d
00000360: d4f3 8b3d a011 1a3e b880 703c ac4c b13b
00000370: dab5 013e 6d6a 1e3d 1b85 11bc 50e5 5e3d
00000380: c2ef cebd 0a23 41bc 80c9 bf3c 0e81 a93c
00000390: 8dd6 0abd ed3c 0bbc 5f62 27bd 6f91 8ebd
000003a0: 3be7 03bd 2ab7 d0bd 3583 6e3d 41ac b03d
000003b0: fab9 143d 8295 0bbd b445 7f3d b4d3 2e3d
000003c0: 4ed4 11ba 90c7 3fbd 88c0 b8bd 5a96 cd3d
000003d0: 325a d6ba ca5b e03c 5500 12bc e5aa aabd
000003e0: 38a9 603d 8398 7d3b 42f8 61bc a332 c1bd
000003f0: 00fd b73d 5d85 13be 8082 ccbd fefb 033e
0.09849214 0.011151511 -0.009637668 -0.048584286 -0.02765453 0.02318505 0.100715175 -0.060953904
0.048366603 0.013778472 0.046883542 -0.038717225 -0.0036573187 -0.038399085 0.05237146 -0.036610622
-0.008060278 -0.01659496 0.0038633507 0.010394466 -0.0778705 0.039394915 0.029985929 -0.0069593373
-0.028364006 -0.0018348576 0.06899166 -0.1467462 0.061941788 0.012429645 -0.055944305 0.05162485
-0.034394734 -0.1100772 0.015067082 -0.017909247 -0.0400436 -0.017171208 -0.032548316 -0.09041996
0.037762154 0.030949352 -0.005616383 0.034966916 0.084006846 0.078408614 0.055150647 -0.08444976
0.085580565 0.06810127 -0.028534124 0.021121113 0.060602285 0.07597023 0.05401726 0.023016829
-0.036134396 0.0265374 -0.026662491 -0.022361422 -0.0876289 -0.039060686 -0.04831487 -0.0021073846
-0.009592091 -0.06522582 0.020927567 -0.012129115 0.10696447 -0.15552637 -0.038025085 0.040695976
-0.019915074 -0.08839426 -0.053881798 0.06282317 -0.017241817 0.02580483 0.041539647 -0.07608662
-0.13630278 0.041984215 -0.031634543 -0.05175046 -0.06908106 -0.04999967 -0.07204267 0.007622639
0.016013924 -0.07101324 -0.00020881864 0.024735132 0.10357442 -0.062429935 0.086180374 0.09001906
-0.0121160485 -0.089431226 0.025799531 -0.09413217 0.0111042205 0.034073405 -0.06286675 -0.0347916
0.114012025 0.03666409 -0.052130464 -0.023257142 0.013312042 -0.03545291 0.0622927 -0.021736557
-0.045677178 0.117561616 -0.022164434 -0.11368798 0.048209406 0.05408211 0.050810426 0.087631695
-0.023669848 -0.12082575 0.14516136 -0.0041356976 -0.064815715 0.05798019 -0.056258228 -0.006947932
0.104629785 -0.008166296 0.05014159 -0.021180823 -0.008048975 -0.09584887 -0.10645375 0.043061104
-0.027192838 -0.00933693 -0.045214284 0.031765133 0.036773268 0.0015732069 0.013243426 0.0052846754
0.064638525 -0.059444137 -0.084350385 0.11742034 0.008482968 -0.02622961 0.043263834 0.006706618
-0.019985164 -0.0439088 -0.0027683526 0.15506907 -0.0797869 -0.003784615 -0.010184822 -0.023329591
-0.08444713 -0.15204859 -0.056156553 -0.020512918 -0.109711714 0.0045514964 0.037441146 -0.0016008632
0.015946435 0.0014618081 -0.13087182 0.06379484 0.074241035 0.042983774 -0.006125541 -0.07754942
-0.026563415 -0.03268395 -0.15519348 -0.031913117 0.089792766 0.022241496 -0.16025613 0.044851083
-0.060173236 0.12897326 -0.096262105 -0.07243452 -0.0010176618 0.04767344 0.05514321 0.029347276
-0.052729893 0.07160002 -0.036931444 0.019237705 0.054007553 -0.12006878 0.012521544 0.06605571
0.009508299 0.018139625 -0.05170819 -0.015010874 0.028785458 -0.016153423 -0.02563334 0.12413664
-0.13974275 0.011159406 0.021249639 -0.038101982 0.09054273 -0.09073288 -0.009275455 0.07122578
0.06833616 0.15045786 0.014679126 0.0054107513 0.12667027 0.038675714 -0.0088818325 0.05441791
-0.10104324 -0.011788139 0.023411512 0.02069142 -0.033896018 -0.008498413 -0.0408653 -0.06961333
-0.03220294 -0.10191186 0.058230598 0.08626605 0.036310174 -0.03407813 0.062322333 0.042682365
-0.0005562947 -0.046821177 -0.090210974 0.10038443 -0.0016353785 0.027387518 -0.008911212 -0.08333377
0.05484888 0.003869564 -0.013792099 -0.09433486 0.08983803 -0.14406343 -0.099858284 0.12889096

layer3.0.bias f4 [128]
00000000: 3a0b aa3b 4070 b2bb d03b 1e3c 676e 5b3c
00000010: ad9a 453c f0d7 c43c 3baa 743c 6385 b9bb
00000020: ffee 0c3d 3316 be3b a0c9 c73b fb8b 0d3d
00000030: f91d 22bd 8393 6bbc 6274 f33c cb98 aebc
00000040: 5ee5 7bbc cab3 d7bc ec96 30bd 3df5 f73c
00000050: 7c27 d53c fb6b f5bb ec98 d43c edc7 c1bb
00000060: 10f4 8abc a656 8e3b b68c 6d3b bb9a 8d3c
00000070: d971 723c 4d75 19bb e6a0 debc 1654 633c
00000080: 6d01 d5ba 8e31 ccbc 4504 babc c8da 29bd
00000090: 4812 113b 2622 c93c 3969 2dbd d578 723c
000000a0: 19f5 de3c 3c2f 5abd dd4f e3bc 4e5e 25bc
000000b0: dbcf 9d3a 5e91 d3bc 7aaf 553c 26fa f93b
000000c0: 3c87 34bd cefa 12bd ef86 20bd 2f63 23bc
000000d0: 60de 073d 73bb debc 7602 13bd a12c ebbc
000000e0: 71fc 573c 0d55 5738 170f 0f3d 307e f5bc
000000f0: 6570 b5bc 8273 a03b b41e 9abb d779 0bbd
00000100: 1b25 72bc fc63 783c 6b6e 6939 f4c3 22bd
00000110: f328 8a3c 6441 5abc e214 1fbd 39b1 6c3c
00000120: 3ada 813c f99f 103c aa9d aeba a056 f1bc
00000130: 6e3c 17bc e27e d9bc 6a13 16bd a5af 6bbc
00000140: ec27 f5bc 75d2 313c f3f7 b9bc dd12 173d
00000150: ac15 8fbc 7d80 223c 4028 123d 6408 7fbb
00000160: 65dd b03c e492 763c a46d 023d 43d7 ecbc
00000170: 8080 66bc eab3 0fbb 4447 ffbc 65f9 e2bc
00000180: 6f8a a53b ee9c 0c3d 131a a5bc bd24 0ebc
00000190: 107f cc3a 9274 943c aff9 be3a 3d21 14bc
000001a0: de2b a43c 6992 0e3d 7819 9f3c c7d1 af3c
000001b0: 8532 a5bc 2c8b cfbc 2f1a 4f3c 4c8c 1dbd
000001c0: 84b5 ca3a c298 9e3b b6a4 b53b b199 73bc
000001d0: e0d3 9cbc 2477 0ebc 9bee 25bd 1bba c43c
000001e0: cf5b 25bd 0928 fe3c 5d31 a03a 001e 8ebc
000001f0: 8d6e 003d f7ca 4bbc ae6c 96bc ebdd d03c
0.0051893266 -0.00544551 0.009657815 0.013393021 0.012060803 0.024028748 0.014933164 -0.005661653
0.034407612 0.005800986 0.0060970336 0.034557324 -0.039579365 -0.014378431 0.029718582 -0.021313092
-0.01537451 -0.026330847 -0.04311268 0.030268306 0.026019804 -0.007489679 0.025951825 -0.0059137256
-0.016962081 0.0043438254 0.00362472 0.017285695 0.014797651 -0.0023415864 -0.027176332 0.013875028
-0.0016251035 -0.024925973 -0.022707114 -0.04146841 0.002213614 0.024552416 -0.042336676 0.014799316
0.027216481 -0.053267702 -0.027748043 -0.010093285 0.0012040095 -0.025826152 0.013042325 0.007628697
-0.044074282 -0.035883717 -0.039191183 -0.009972378 0.033171058 -0.027188992 -0.03589102 -0.028707804
0.013182745 5.1339204e-05 0.0349265 -0.029967397 -0.02214832 0.004896582 -0.004703367 -0.034051742
-0.014779354 0.015160557 0.00022261745 -0.039737657 0.01686523 -0.013321254 -0.038838275 0.01444655
0.015851129 0.008827203 -0.0013322134 -0.029460251 -0.009230716 -0.02654976 -0.03663961 -0.014385139
-0.029926263 0.0108533995 -0.02270124 0.036883224 -0.017466389 0.009918329 0.035682917 -0.0038914913
0.021589944 0.01504967 0.031842843 -0.028911239 -0.014068723 -0.0021927305 -0.031161912 -0.027706811
0.005051903 0.034329347 -0.020154035 -0.008675751 0.0015601832 0.018121991 0.0014570261 -0.009041128
0.020040449 0.034807596 0.019421324 0.021462334 -0.020165691 -0.025334917 0.01264052 -0.038463876
0.0015465473 0.0048399875 0.0055433167 -0.014868186 -0.019143999 -0.0086953975 -0.040510755 0.024014523
-0.04037076 0.03102495 0.0012221743 -0.01734829 0.03135543 -0.012438527 -0.01836237 0.025496444

layer3.1.weight f4 [128]
00000000: 1901 823f 6d41 843f 1320 7f3f 524e 853f
00000010: 2c41 8b3f e75d 7e3f 9617 823f 0e0f 8a3f
00000020: abdf 893f f2db 883f 5f64 833f bba9 823f
00000030: 2318 7d3f 3c33 723f ff2f 853f c7b0 8a3f
00000040: 9c75 7e3f aabb 833f bbf5 7f3f b547 823f
00000050: 2e4c 763f 301b 873f 277a 793f 5978 803f
00000060: b8d5 843f 9920 7b3f 2f51 893f 8449 8b3f
00000070: 1987 6b3f 563e 853f 5f85 833f 8ea7 863f
00000080: b960 863f e6bb 823f 2b20 853f 27f3 823f
00000090: de04 853f 07eb 7d3f 09e4 693f 0081 7e3f
000000a0: 6fd8 6e3f 9d2a 833f 710f 7a3f ab7c 873f
000000b0: 412b 883f 4098 873f b49c 833f 78af 923f
000000c0: 3822 863f b93d 833f cc31 823f 0cc4 813f
000000d0: ef4f 893f 701b 883f 88fd 6f3f 5f0d 873f
000000e0: ecd7 803f 8f21 823f 72a1 863f b452 803f
000000f0: 70e1 8b3f 3cf5 863f b264 773f 024d 7e3f
00000100: ce0d 883f 8eea 853f 7be9 893f 93cf 8d3f
00000110: e5c2 883f d475 7c3f 9bc6 8a3f 2f52 843f
00000120: e1ae 843f a23a 883f b555 7d3f 0a93 893f
00000130: eaee 863f 9db1 7e3f dd2b 7d3f faf5 853f
00000140: b845 7a3f b88e 843f 042d 903f e5c2 713f
00000150: 4ae9 7f3f f99c 893f 5068 853f 8759 7c3f
00000160: d595 843f d927 833f 531b 853f 5307 893f
00000170: 57f4 8a3f d639 863f fda2 7f3f db2f 8b3f
00000180: ef2e 833f 9f82 8e3f 5ba3 823f adab 843f
00000190: 47d9 8c3f 1812 7f3f f837 823f adb9 883f
000001a0: beac 8c3f 6566 813f 6fe4 783f 71c5 7e3f
000001b0: c8f5 733f 2c03 803f d2c7 893f cc35 853f
000001c0: 0c42 7d3f 74de 783f 6657 883f 21dd 873f
000001d0: 42b1 853f 6188 953f ad23 803f 1e93 793f
000001e0: f351 7b3f 65c6 833f 0d92 8d3f 2b93 8c3f
000001f0: 83c8 853f 422a 7a3f c29e 843f 84e1 7e3f
1.0156585 1.0332466 0.99658316 1.0414526 1.0879264 0.99362034 1.0163448 1.0785844
1.0771383 1.0692122 1.0265006 1.0208048 0.98864955 0.9460943 1.0405272 1.0835198
0.9939821 1.0291646 0.9998433 1.0178133 0.9620999 1.0555172 0.97452015 1.0036727
1.0377722 0.98096615 1.07279 1.088181 0.9200302 1.0409648 1.0275077 1.0519884
1.0498267 1.0213592 1.0400442 1.0230454 1.039211 0.9918675 0.9136358 0.9941559
0.93299 1.024738 0.9767981 1.0584921 1.06382 1.0593338 1.0282197 1.1459799
1.0479193 1.0253211 1.0171447 1.0137954 1.0727519 1.0633373 0.93746233 1.0550956
1.0065894 1.0166491 1.0518019 1.0025239 1.0928173 1.054359 0.96638024 0.99336255
1.0629213 1.0462205 1.0774378 1.1078972 1.0684477 0.9861729 1.084186 1.033758
1.0365869 1.0642893 0.98958904 1.0747998 1.0541661 0.99489766 0.98895055 1.0465691
0.9776263 1.0356054 1.1263738 0.9443801 0.99965346 1.0751029 1.0422459 0.9857411
1.0358225 1.0246536 1.0398964 1.070536 1.0855817 1.04864 0.99858075 1.0873979
1.0248698 1.1133612 1.0206102 1.0364891 1.1003808 0.99636984 1.017333 1.0681664
1.0990217 1.0109373 0.9722356 0.9952002 0.9529691 1.0000968 1.0764105 1.0407043
0.98928905 0.97214437 1.0651672 1.0614358 1.044472 1.1682245 1.0010887 0.9749011
0.9817192 1.029492 1.1060196 1.0982412 1.0451816 0.9772073 1.0360949 0.9956286

layer3.1.bias f4 [128]
00000000: 1f98 bbbe a91b 91be 7b58 bbbe 0616 43be
00000010: 8aca 9bbe 0712 88be 357f 8ebe 4b2a 90be
00000020: 5063 94be baab b9be 0b90 8dbe 5da7 c2be
00000030: be9a b8be 849b 44be cb46 a4be 1e22 86be
00000040: c65d cabe e632 92be 47fd 61be a61f d9be
00000050: a66a b8be 5066 7ebe c776 b7be 917a a5be
00000060: 4f18 9ebe 1fb9 b0be 6f8c bbbe bb81 88be
00000070: 657b bcbe 55d1 b4be 7224 9bbe 323e aabe
00000080: d511 85be 111c 93be ac16 bfbe 1058 81be
00000090: a028 bebe 1659 b1be a00b bcbe eeab 7dbe
000000a0: 9713 cfbe 405e 64be b2ee a6be f8b9 abbe
000000b0: bfb2 dfbe dae1 99be c05b 98be 6569 9dbe
000000c0: 29a9 c5be 362f b9be 05a1 b9be 87d6 ddbe
000000d0: 1a3e b8be 5ea3 85be 4cc2 e0be 4608 91be
000000e0: 9fe8 b2be c275 96be 586d 8abe 1a0e 6fbe
000000f0: c628 8bbe f569 cdbe 17a2 a2be 3a3f d1be
00000100: ac52 b6be 38ca 97be efbe a1be 68f3 83be
00000110: 113c 78be c103 90be e598 c4be ae9e 9bbe
00000120: b1a8 9fbe 0d82 8fbe dd1d c1be 5aaa 92be
00000130: ccb1 6abe afc4 91be c2e3 87be dd37 aebe
00000140: 5b56 91be d20e 86be d7aa 9dbe 9290 92be
00000150: 80e4 a4be 3aeb 83be 40b2 76be 3ff9 78be
00000160: f9cd 75be 5a1a 6cbe 752a 92be 2f56 3abe
00000170: 45b4 92be d6c1 a7be bdc1 89be 7640 b3be
00000180: b1bf a7be 1f74 80be 62c7 e4be cc44 88be
00000190: 2cd5 b6be d6bd 5bbe 34f5 eabe 14fe 9abe
000001a0: 1ce5 a8be 01de a0be 9c0e abbe 7b23 8fbe
000001b0: 5262 91be 239d 9ebe 87e6 a1be a239 a6be
000001c0: 3b3d debe 19df a2be d5d2 8fbe 10f0 9fbe
000001d0: 6108 9bbe bb71 73be 7ef7 94be a442 c9be
000001e0: 16e1 8abe f1dd a3be 1cff 9ebe 33b6 8ebe
000001f0: a0f5 a7be b88f 92be 28a5 b0be 4bc3 8cbe
-0.36639497 -0.28341416 -0.36590943 -0.1905137 -0.30427963 -0.26576254 -0.27831426 -0.28157267
-0.2898202 -0.3626383 -0.2764896 -0.38018313 -0.3605556 -0.1919995 -0.3208526 -0.26197904
-0.39524668 -0.28554457 -0.22069274 -0.42406958 -0.36018866 -0.24843717 -0.35832807 -0.32320073
-0.3087792 -0.34516236 -0.3663058 -0.26661476 -0.36812893 -0.35315958 -0.30301243 -0.33250576
-0.25990167 -0.2873235 -0.37321985 -0.252625 -0.3714037 -0.3463828 -0.3672762 -0.24772617
-0.40444633 -0.22301579 -0.32603985 -0.3354032 -0.4369106 -0.30055124 -0.297575 -0.30744472
-0.3860562 -0.36168832 -0.3625566 -0.43327734 -0.3598488 -0.26101202 -0.43898237 -0.28326625
-0.349431 -0.29386717 -0.27036548 -0.23345223 -0.27179545 -0.401199 -0.3176429 -0.4086855
-0.3560995 -0.29646468 -0.31590983 -0.25771642 -0.24241664 -0.28127864 -0.383979 -0.303945
-0.3118339 -0.28028908 -0.37718096 -0.28645593 -0.22919387 -0.2847037 -0.26540953 -0.34026995
-0.28386196 -0.26183182 -0.30794403 -0.28625923 -0.32205582 -0.257654 -0.24091434 -0.2431383
-0.24004354 -0.23056927 -0.28548017 -0.18196939 -0.2865316 -0.32765073 -0.26905623 -0.35010117
-0.32763436 -0.25088593 -0.44683367 -0.26614988 -0.35709512 -0.21459135 -0.458902 -0.3027197
-0.32987297 -0.31419376 -0.33409584 -0.27956757 -0.28395325 -0.3097926 -0.3162119 -0.32465845
-0.4340609 -0.31810835 -0.2809054 -0.3123784 -0.3027983 -0.23773853 -0.29095072 -0.39308655
-0.27124852 -0.32005265 -0.31054008 -0.27873382 -0.32804585 -0.28625274 -0.34501004 -0.27492747

layer3.1.running_mean f4 [128]
00000000: b4a5 08bf 9dfa 2cbf 73cc 133e cc91 243e
00000010: b289 033e b5d4 c4bf 9b43 a0be 9462 b6bf
00000020: 5674 b0be 140a b7bf 1ce2 dabf 2600 e5bf
00000030: b7c4 b43f f92a 17c0 dc16 5c3e 14b6 1dbe
00000040: b967 86bf 125a 2abf 04cf d6bf 28d6 15bd
00000050: 5531 9cbf 59f3 4bbf b5c8 70bf 5e2b 94bf
00000060: e4b7 dcbf 6945 86bf 92f4 7abe 586d 50bf
00000070: 8579 a2bf 0d8c 2abf 65ec 84bf d6aa 65bf
00000080: 70be 81bf 1313 6d3e 400a bfbf 03fc 86bf
00000090: d93f d2bf 2fe7 98bd 13d4 3b3f 6562 d5be
000000a0: 5b42 60bc 0155 6e3f 2b19 95bf d6ae c4bd
000000b0: 1ba1 52bf 3c92 86be 9979 1d3e 8fbc 9fbe
000000c0: 3931 cabe 9b49 5ebf 18a8 82bf d6ff c2bf
000000d0: b6cb 82bf 8831 cdbf c389 cfbd f811 1ebf
000000e0: ef2a b03f 5e18 9ebe d025 55bf 4696 a33e
000000f0: ac29 a3bf 37c8 b9be 64e5 67bf 752f 9ebf
00000100: b69e 85bf 5000 51be e111 813c d6b4 c3bf
00000110: 4cbd b0bf 8a46 afbf ccdf 0ebe a751 e53c
00000120: 70db c3bf b1d0 9ebe abce 2fbf cbf1 8ebf
00000130: d89b 9b3e 5ffb 04bf fad6 00bf 046e 5abf
00000140: d677 67be 673e 133f d76c 59bf ac48 53bf
00000150: acf3 1abf 48ea d2bd 6f6f 7abf 0cec 21bf
00000160: 5da3 05bf 719f 50bf dca6 b13f 22e3 0d3f
00000170: a8cd 82bf ed5a 14c0 f556 9abf f8e9 79bf
00000180: 319f f33d c6d7 92bf 957f 9fbe 3ebc 5dbd
00000190: 2f68 c3bf 724b 0ac0 1127 5cbe f8ef e6bf
000001a0: 3993 c2bf f77c 2bc0 aab9 ccbf b9f6 b2bf
000001b0: c575 30be e755 2abf 4db9 edbe 8862 d5bf
000001c0: 9154 37bf da34 6bbf b375 d6bf 6f6b 85bf
000001d0: 5fcf 31bf 9893 e2bf 1121 b4bf 5207 25bd
000001e0: 7770 d83e fc2b 72bf 564c 0dbf 83d2 c6bf
000001f0: 0998 22bf d3e7 ed3f 595e 303f 4b32 9dbf
-0.5337784 -0.67569906 0.1443346 0.16071242 0.12845495 -1.5377413 -0.3130158 -1.4248834
-0.34463757 -1.4299951 -1.7100253 -1.789067 1.4122533 -2.3619978 0.21493095 -0.15401489
-1.0500404 -0.66543686 -1.6781926 -0.03658119 -1.2202555 -0.79668194 -0.94056255 -1.1575735
-1.7243619 -1.0489932 -0.24507359 -0.81416845 -1.2693335 -0.6661995 -1.0384642 -0.897138
-1.0136242 0.23151807 -1.4925003 -1.0545658 -1.6425735 -0.0746597 0.73370475 -0.41676632
-0.013687695 0.93098456 -1.1648306 -0.0960366 -0.8227708 -0.26283443 0.15378417 -0.31198546
-0.3949068 -0.86831063 -1.0207548 -1.5234325 -1.0218418 -1.6030741 -0.10133698 -0.6174617
1.3763102 -0.30877966 -0.8326082 0.31950587 -1.2747092 -0.36285564 -0.905844 -1.2358233
-1.043906 -0.20410275 0.015755596 -1.5289562 -1.3807769 -1.3693402 -0.13952559 0.027993036
-1.5301342 -0.31018594 -0.68674725 -1.1167539 0.30392337 -0.5194606 -0.5032803 -0.8532412
-0.22604308 0.57517093 -0.849317 -0.82532763 -0.60528064 -0.10298592 -0.97826284 -0.63250804
-0.522024 -0.8149329 1.3879046 0.554247 -1.0219011 -2.3180497 -1.2057787 -0.97622633
0.11895598 -1.1472099 -0.31152025 -0.0541346 -1.5266169 -2.1608548 -0.21499278 -1.8041983
-1.5201179 -2.6795022 -1.599416 -1.3981544 -0.17232426 -0.66537327 -0.46430436 -1.6670694
-0.71613413 -0.9187752 -1.6754669 -1.0423411 -0.6945705 -1.7701292 -1.4072591 -0.040290184
0.42273304 -0.94598365 -0.55194604 -1.5532993 -0.6351324 1.8586372 0.68893963 -1.2280973

layer3.1.running_var f4 [128]
00000000: ed3b db3f 8619 fc3f 34ac b13f 712d 0840
00000010: 1aeb 0340 4a3f ee3f 8571 bf3f 71cc fe3f
00000020: cf31 ba3f a230 f53f 506d 0340 014d d43f
00000030: e9c7 dc3f c6d5 1b40 06d5 e63f fe0c d73f
00000040: 3dde ce3f 4725 e63f 730b dc3f e1c7 b53f
00000050: 0ff6 b43f 5f1f e73f ed79 923f e7be f53f
00000060: c255 cd3f 37ae 8f3f d866 d23f cac0 c63f
00000070: 3ddd cd3f 06fa b83f 9dbe da3f 17d8 ea3f
00000080: dec9 ff3f 8fe5 d33f c2c4 d63f 829e cf3f
00000090: 23a4 d43f 709d e93f 51a3 a33f 78e6 d23f
000000a0: 7a55 b13f 2152 e43f 0371 cd3f e5f4 e63f
000000b0: 3e30 bd3f ffef ea3f e305 e03f 16eb cf3f
000000c0: 00e4 f03f c71b d63f f2a3 db3f 13e6 aa3f
000000d0: 9f70 e23f e460 d73f 9a04 ea3f f1f3 e93f
000000e0: 28f0 eb3f ad87 d73f 28ef fa3f ad88 0340
000000f0: cd9d cd3f c8c8 da3f 3f24 b03f 545c c33f
00000100: 576d f83f 21de 9f3f 5068 be3f 94bf fd3f
00000110: 8745 cf3f c877 ed3f 1d16 dc3f fc4b b93f
00000120: 2175 0540 c405 cc3f 423e bc3f 830e fd3f
00000130: 2a97 c53f 49b6 eb3f 08ae ef3f d819 b73f
00000140: 23d7 c73f 7d96 1b40 1098 f73f 218a be3f
00000150: 6bfa bf3f 5053 f93f e098 df3f d407 0740
00000160: 360a d33f df5b 0f40 40bc e13f f4a0 e93f
00000170: b29f ea3f 4819 2740 ae15 c43f 9a09 0540
00000180: 6462 d13f a6f1 0c40 79df b53f 69d0 bf3f
00000190: bbb8 e63f 0257 f43f 88b8 d13f 1b06 e13f
000001a0: 1206 af3f 0fbc de3f 944c e13f dfab bc3f
000001b0: d9ad bf3f 3781 ff3f d4c8 ec3f b90b f53f
000001c0: e1b7 b83f 55d1 d33f 97da c73f d8c0 d63f
000001d0: 3adb cb3f 6387 0040 3e80 1c40 0cb4 b73f
000001e0: 0f60 be3f f332 cb3f 7e63 ca3f a9d0 f53f
000001f0: 60d9 e73f d074 b13f 4eed b43f 91a9 f13f
1.7127663 1.9695289 1.3880677 2.1277735 2.0612245 1.8613064 1.4956518 1.990614
1.454645 1.9155467 2.053547 1.6586 1.7248508 2.4349227 1.803376 1.680084
1.6161572 1.7980126 1.7190994 1.4201623 1.4137591 1.8056449 1.1443459 1.9198884
1.6041796 1.1225041 1.6437635 1.5527585 1.6083142 1.4451301 1.708942 1.8347195
1.998348 1.6554431 1.6778796 1.6220248 1.661259 1.8251171 1.2784215 1.6476583
1.385421 1.7837564 1.6050113 1.8043486 1.4780347 1.8354491 1.7501796 1.6243618
1.881958 1.6727227 1.7159407 1.3351463 1.7690619 1.6826444 1.8282654 1.827757
1.8432665 1.683828 1.9604235 2.055217 1.6063782 1.7092524 1.3761061 1.5262551
1.9408368 1.2489663 1.4875584 1.982409 1.6193093 1.8552179 1.7194248 1.4476314
2.085274 1.593926 1.47065 1.9770054 1.5436757 1.8415004 1.8724985 1.4304762
1.561253 2.43106 1.9343281 1.4885904 1.4998296 1.947855 1.7468529 2.1098528
1.6487491 2.2399824 1.7635574 1.8252244 1.8329985 2.610918 1.5319116 2.078711
1.6358151 2.202249 1.4208823 1.4985477 1.8025125 1.9089053 1.638444 1.7579988
1.3673728 1.7401141 1.7601495 1.4739951 1.4974929 1.9961308 1.8498788 1.9144202
1.4431115 1.6548258 1.5613583 1.6777601 1.5926278 2.0082633 2.4453273 1.4351821
1.4873065 1.5874923 1.5811613 1.9204303 1.8113213 1.3863773 1.413492 1.8879873
